model/keypoint_classifier/keypoint_classifier.tflite (tflite, 22984 bytes, 6 tensors)

arith.constant f4 [7, 10]
0	0x3e95f412	0.29287773
1	0x3e60e931	0.21963955
2	0xbd3110fd	-0.043229092
3	0x3dd474d4	0.10373846
4	0xbea05031	-0.3131118
5	0x3f1a5bea	0.602965
6	0xbe9d2f9a	-0.3070038
7	0x3e809ba0	0.25118732
8	0x3f4011a0	0.75026894
9	0xbf08efc0	-0.5349083
10	0x3f2b5ddc	0.66940093
11	0xbea88739	-0.32915667
12	0xbe1298fa	-0.14316168
13	0x3cda9621	0.026682915
14	0x3e14323f	0.14472292
15	0xbea6d45c	-0.32583892
16	0x3e27848a	0.16359153
17	0xbf30c702	-0.6905366
18	0x3f4c86ab	0.79892987
19	0xbeecf4b8	-0.46280456
20	0xbf10ff8b	-0.5663993
21	0x3f23bf1c	0.63963485
22	0x3ee97b22	0.45601755
23	0xbf2a1f8d	-0.6645439
24	0x3f48a8c1	0.783825
25	0xbf29de30	-0.66354656
26	0x3efec3be	0.49758714
27	0x3f399961	0.7249966
28	0xbf664522	-0.8994924
29	0xbf3de0a9	-0.7417093
30	0xbf89d804	-1.0769048
31	0xbf6fdd16	-0.93696725
32	0xbe183fb8	-0.14868057
33	0x3f944aa8	1.1585283
34	0xbc856487	-0.016283287
35	0xbe6066c5	-0.21914203
36	0x3e01813b	0.12646954
37	0x3e5329e5	0.2062145
38	0x3ee23013	0.44177303
39	0x3dc716e8	0.09721166
40	0x3ea972ec	0.3309549
41	0x3e9ff308	0.31240106
42	0xbe31e330	-0.17371821
43	0x3e05d3ea	0.1306912
44	0x3f59eec4	0.8512995
45	0x3e4abd25	0.19798715
46	0xbf9759f2	-1.1824324
47	0xbc7e1b91	-0.015509502
48	0xbfa7dcce	-1.3114259
49	0xbe9b3b94	-0.30318892
50	0x3ec57940	0.3856907
51	0xbebc3f33	-0.36766967
52	0xbe9b5c83	-0.30344018
53	0xbf1e0786	-0.6173023
54	0x3e3a7d9c	0.18211979
55	0x3e8161cd	0.2526993
56	0x3f67246a	0.9028994
57	0xbf4198c7	-0.75623745
58	0xbebcbf32	-0.3686462
59	0x3f47fd83	0.78121203
60	0xbf5a030f	-0.8516092
61	0x3f761029	0.9611841
62	0x3f67f725	0.9061149
63	0xbdd101a9	-0.10205395
64	0xbf8d726b	-1.1050543
65	0xbf6bf6d9	-0.92173535
66	0x3e5124c1	0.20424177
67	0xbf0a0518	-0.5391402
68	0xbe3fb321	-0.18720676
69	0xbeb0a15c	-0.34498107

arith.constant1 f4 [10, 20]
0	0xbe8a82db	-0.2705296
1	0xbe6c5022	-0.23077443
2	0x3e186cb2	0.14885214
3	0xbf45bf8e	-0.77245414
4	0x3f3c9752	0.73668396
5	0x3d9be129	0.07611305
6	0xbeab0699	-0.3340347
7	0xbf43676c	-0.76329684
8	0xbf751617	-0.9573683
9	0x3ea30eee	0.31847328
10	0xbc8a506a	-0.016884048
11	0xbe5bc3c3	-0.21461396
12	0x3e40b66b	0.18819587
13	0x3d53b668	0.051687628
14	0xbdc01289	-0.09378535
15	0x3ea72081	0.32641986
16	0xbf0791d9	-0.5295692
17	0x3f16617e	0.5874251
18	0xbf1eae74	-0.61984944
19	0xbdec137e	-0.11527155
20	0xbee90282	-0.45509726
21	0xbf06e8f4	-0.5269921
22	0xbd7312ee	-0.059344225
23	0x3f1673f4	0.5877068
24	0x3e6fe8ca	0.23428646
25	0x3f307b43	0.6893808
26	0x3ed7dc81	0.4216042
27	0xbf25e18e	-0.64797294
28	0x3f047327	0.5173821
29	0xbeeea2a0	-0.46608448
30	0x3ebc1665	0.36735836
31	0xbe3e3417	-0.18574558
32	0x3edae4ba	0.4275263
33	0x3dfb87ac	0.12281737
34	0x3eb46bec	0.35238588
35	0x3e9a27f7	0.30108616
36	0x3eddc755	0.4331614
37	0xbd79653e	-0.060887568
38	0x3f06b09d	0.5261324
39	0x39d7dd05	0.00041172668
40	0xbd50672b	-0.05087964
41	0x3e9d5b14	0.3073355
42	0x3da3ab6b	0.0799168
43	0x3ef4b60b	0.47795138
44	0x3eb2450e	0.3481831
45	0x3f55de47	0.83542293
46	0x3eec933b	0.46206078
47	0xbedd67ad	-0.4324316
48	0x3f635bd2	0.8881198
49	0xbe9af0c8	-0.30261827
50	0xbe63571c	-0.22201198
51	0xbf095f41	-0.5366097
52	0x3e84cc84	0.25937283
53	0x3a1e6d6e	0.0006043528
54	0x3f0cf198	0.5505614
55	0xbd2c87ff	-0.042121883
56	0x3f195926	0.59901655
57	0xbe36c1f1	-0.1784742
58	0x3f30b7da	0.69030535
59	0x3f20f858	0.6287894
60	0x3e047271	0.12934281
61	0x3e2e13c6	0.1699973
62	0x3f1d900d	0.6154793
63	0x3e73fc30	0.2382667
64	0xbea75141	-0.3267918
65	0x3d4a240c	0.049350783
66	0xbe63a362	-0.22230294
67	0x3f4bf92e	0.79677093
68	0x3f219111	0.6311198
69	0x3ee75392	0.45180947
70	0xbe6db4fb	-0.2321357
71	0x3eef8169	0.4677842
72	0xbf2d7cf2	-0.67768776
73	0xbf133d9a	-0.5751587
74	0xbe636456	-0.22206244
75	0xbe0e437b	-0.1389293
76	0xbe16476a	-0.1467568
77	0xbea5d0e6	-0.3238594
78	0xbf0f51ed	-0.55984384
79	0xbf3a2993	-0.7271969
80	0x3f6121da	0.8794228
81	0xbe6ef277	-0.2333468
82	0x3f03880e	0.5137948
83	0x3d8e40ef	0.06945979
84	0x3ed94ad4	0.42439902
85	0xb921514a	-0.00015384439
86	0xbe6bdcf4	-0.23033506
87	0xbe8909ad	-0.26765195
88	0x3e8bde27	0.27317926
89	0x3d125cf7	0.03573319
90	0x3f14b35c	0.5808618
91	0xbe74f90a	-0.23923126
92	0x3db3c153	0.08777108
93	0x3f3c75b3	0.73617095
94	0xbceae39f	-0.028672991
95	0x3eabf3c0	0.33584404
96	0xbf2e0932	-0.6798278
97	0xbe65359e	-0.22383735
98	0xbdce8f53	-0.10085931
99	0xbde3920d	-0.11111841
100	0x3d385314	0.045001104
101	0xbf07e64d	-0.53085786
102	0x3edcc4ac	0.431188
103	0xbf38eca5	-0.7223609
104	0x3e1d6257	0.15369545
105	0x3e95632f	0.29177234
106	0xbf3d7881	-0.74012
107	0x3df1a7ed	0.117996074
108	0xbe900720	-0.28130436
109	0x3e14a688	0.14516652
110	0x3e61c0d4	0.22046214
111	0x3ef72e15	0.48277345
112	0xbe44e1e0	-0.1922679
113	0x3ee3cc4e	0.4449181
114	0x3e433185	0.19061859
115	0x3f118419	0.5684219
116	0x3daa7351	0.08322776
117	0x3d5e03b4	0.05420275
118	0xbf1402d3	-0.5781681
119	0x3d7ef822	0.062248357
120	0xbd812851	-0.06306518
121	0xbed8c350	-0.42336512
122	0xbb76f4bc	-0.0037682494
123	0xbeae6a9f	-0.3406572
124	0xbd56a830	-0.05240649
125	0xbf00b0b4	-0.5026963
126	0xbb855078	-0.0040684305
127	0x3d7d809f	0.06189024
128	0xbee95a2c	-0.45576608
129	0xbe43d4f6	-0.19124207
130	0x3eb5b420	0.35488987
131	0xbed703b7	-0.41995022
132	0xbdcfccea	-0.10146506
133	0x3e40deef	0.18835042
134	0x3f122d69	0.5710054
135	0xbe3b61a8	-0.18298972
136	0xbe677a3c	-0.22605222
137	0x3ee74825	0.4517223
138	0xbb225900	-0.0024772286
139	0x3f0ad893	0.54236716
140	0x3f051e3b	0.51999253
141	0xbed15d03	-0.40891275
142	0x3f0dc022	0.55371296
143	0xbdd5e2b4	-0.10443631
144	0xbedda94a	-0.4329322
145	0x3ea0f920	0.31440067
146	0x3e18016e	0.14844295
147	0x3d1463b9	0.036227915
148	0x3eb7ec91	0.35922673
149	0xbe21b0e0	-0.15790129
150	0xbdf0133d	-0.117224194
151	0x3ea70258	0.32618976
152	0x3e2d3553	0.16914873
153	0x3ed15ef4	0.40892756
154	0x3f00aa88	0.5026021
155	0x3f4c3cf2	0.79780495
156	0xbf4018e0	-0.75037956
157	0xbee0831b	-0.43850026
158	0xbe6bd8c3	-0.23031907
159	0x3c02e264	0.007988546
160	0xbf4db9ab	-0.8036143
161	0x3dfdc5a6	0.12391214
162	0x3e2c12cd	0.16804047
163	0xbf03a897	-0.5142912
164	0xbf1c48b1	-0.6104842
165	0xbe69abf8	-0.22819507
166	0xbf0f4480	-0.559639
167	0xbde69582	-0.11258985
168	0xbec45ac7	-0.38350508
169	0x3c55c2f0	0.013046965
170	0xbf3dfc0c	-0.7421272
171	0x3eaf6c06	0.34262103
172	0x3ebac33c	0.36477077
173	0xbf12e3e5	-0.5737899
174	0x3f2e4e05	0.680878
175	0xbf2faeaf	-0.6862592
176	0x3d4173e9	0.04722968
177	0x3ea91994	0.33027327
178	0xbe52fed3	-0.2060502
179	0xbe61f16b	-0.2206475
180	0x3f2d1fe2	0.67626774
181	0xbe8cf40c	-0.27529943
182	0xbd448847	-0.047981527
183	0xbe796413	-0.24354582
184	0x3e9c3e60	0.30516338
185	0xbf693f83	-0.91112536
186	0xbed629ca	-0.41828758
187	0xbd852d15	-0.06502739
188	0x3d49ac39	0.04923651
189	0xbcb2d016	-0.021827739
190	0x3eb46fd0	0.35241556
191	0x3f076c51	0.5289965
192	0xbf1442b6	-0.5791429
193	0x3ec9f4e7	0.39444658
194	0xbe915ebd	-0.28392592
195	0xbf101268	-0.56278086
196	0xbe7646d1	-0.24050452
197	0x3ee111d3	0.4395891
198	0xbed9640a	-0.42459136
199	0x3e3e4ee6	0.18584785

arith.constant2 f4 [7]
0	0x3e30b9c8	0.1725837
1	0x3c180ca6	0.009280359
2	0x3d59b5d9	0.05315194
3	0xbe7d3cfe	-0.24730298
4	0xbd636102	-0.055512436
5	0x3dbff6c1	0.093732364
6	0xbe0e9ebf	-0.13927744

sequential_1/dense_1_2/Add/ReadVariableOp f4 [10]
0	0x3ec2a088	0.380131
1	0x3ea6d802	0.32586676
2	0x3ca64c4c	0.020300053
3	0x3c903fe8	0.017608598
4	0x3e87921d	0.26478663
5	0x3e9a2e19	0.30113295
6	0x3d60e4e2	0.05490578
7	0x3d90114a	0.070345476
8	0x3e770906	0.24124536
9	0xbc0cf709	-0.00860382

sequential_1/dense_1/Add/ReadVariableOp f4 [20]
0	0x3b9a47a7	0.0047082487
1	0xbaaa896e	-0.0013010928
2	0xbb8d5e5b	-0.0043142266
3	0x3c9d687b	0.01921486
4	0x3bd47da3	0.0064847036
5	0x3bfa878d	0.0076455534
6	0x3c4c5394	0.012471098
7	0xbb8cf827	-0.004302043
8	0x3c563cec	0.013076048
9	0xbaa0ff81	-0.0012283177
10	0x3bd34a3a	0.0064480575
11	0x3ba67410	0.0050797537
12	0xbc4ca8f2	-0.012491452
13	0x3acac6b7	0.0015470599
14	0xbbf3e538	-0.0074430965
15	0xbb3e4d2c	-0.0029037697
16	0x3bc0a5d0	0.0058791414
17	0x3add8156	0.0016899507
18	0x3c45e2a6	0.012077963
19	0x3bd42f6a	0.0064753788

sequential_1/dense_1/MatMul i1 [20, 956]
0	0xee	-18
1	0x12	18
2	0x07	7
3	0xc7	-57
4	0xf6	-10
5	0xc5	-59
6	0x16	22
7	0xfd	-3
8	0xf7	-9
9	0xd2	-46
10	0x16	22
11	0xe0	-32
12	0xdb	-37
13	0x02	2
14	0xf9	-7
15	0xea	-22
16	0x00	0
17	0xdb	-37
18	0xe5	-27
19	0xf2	-14
20	0xf3	-13
21	0xf0	-16
22	0x8c	-116
23	0x08	8
24	0xdc	-36
25	0x13	19
26	0xdf	-33
27	0x0d	13
28	0xa5	-91
29	0xc2	-62
30	0xb3	-77
31	0xcc	-52
32	0xa4	-92
33	0xea	-22
34	0x8b	-117
35	0xd8	-40
36	0x38	56
37	0xeb	-21
38	0x1a	26
39	0xb1	-79
40	0x3f	63
41	0xe3	-29
42	0x0b	11
43	0xf2	-14
44	0xe7	-25
45	0x08	8
46	0x02	2
47	0x10	16
48	0x06	6
49	0xec	-20
50	0x08	8
51	0x16	22
52	0xf7	-9
53	0x05	5
54	0x1a	26
55	0xe9	-23
56	0x11	17
57	0x05	5
58	0x01	1
59	0xe5	-27
60	0x1a	26
61	0x03	3
62	0xf3	-13
63	0x13	19
64	0xf0	-16
65	0xde	-34
66	0x1d	29
67	0xe4	-28
68	0x07	7
69	0x0f	15
70	0xf8	-8
71	0xeb	-21
72	0x00	0
73	0xe6	-26
74	0x03	3
75	0xb8	-72
76	0xf2	-14
77	0xf2	-14
78	0x01	1
79	0x9d	-99
80	0xf7	-9
81	0xdc	-36
82	0xee	-18
83	0x03	3
84	0xf7	-9
85	0xf4	-12
86	0x13	19
87	0xeb	-21
88	0xfb	-5
89	0xc7	-57
90	0xfd	-3
91	0xc2	-62
92	0x1d	29
93	0xe4	-28
94	0xf7	-9
95	0xf9	-7
96	0x25	37
97	0xdb	-37
98	0x09	9
99	0xe3	-29
100	0xef	-17
101	0xfe	-2
102	0xfa	-6
103	0xf3	-13
104	0xfb	-5
105	0xe2	-30
106	0x15	21
107	0xdf	-33
108	0x0a	10
109	0xeb	-21
110	0xfe	-2
111	0xe9	-23
112	0x0b	11
113	0x0d	13
114	0x0b	11
115	0x0f	15
116	0x06	6
117	0x6b	107
118	0x2c	44
119	0xd6	-42
120	0x27	39
121	0xc8	-56
122	0xfe	-2
123	0xdf	-33
124	0xfa	-6
125	0xda	-38
126	0x01	1
127	0xfc	-4
128	0x11	17
129	0x03	3
130	0x21	33
131	0xf8	-8
132	0x21	33
133	0xfe	-2
134	0x1b	27
135	0xf7	-9
136	0x11	17
137	0xef	-17
138	0xf7	-9
139	0x0b	11
140	0x11	17
141	0xe0	-32
142	0xf7	-9
143	0xf1	-15
144	0x15	21
145	0xec	-20
146	0xfe	-2
147	0xe6	-26
148	0xf6	-10
149	0xec	-20
150	0x20	32
151	0xdc	-36
152	0xe0	-32
153	0xed	-19
154	0xff	-1
155	0xf5	-11
156	0xf3	-13
157	0xdc	-36
158	0x24	36
159	0xc7	-57
160	0x11	17
161	0xe5	-27
162	0x13	19
163	0xf9	-7
164	0x05	5
165	0x24	36
166	0x06	6
167	0xf4	-12
168	0xe0	-32
169	0xfe	-2
170	0xde	-34
171	0xe2	-30
172	0xe5	-27
173	0xdc	-36
174	0x03	3
175	0xef	-17
176	0x03	3
177	0xd3	-45
178	0xe3	-29
179	0xd0	-48
180	0xfc	-4
181	0xe0	-32
182	0xf7	-9
183	0x0c	12
184	0xfc	-4
185	0xa9	-87
186	0x0f	15
187	0x3d	61
188	0x0b	11
189	0xd7	-41
190	0x09	9
191	0xf4	-12
192	0xe7	-25
193	0xd3	-45
194	0x33	51
195	0xc2	-62
196	0x1c	28
197	0xef	-17
198	0x12	18
199	0xe6	-26
200	0x09	9
201	0xf0	-16
202	0x0a	10
203	0xf6	-10
204	0x22	34
205	0xe7	-25
206	0x0b	11
207	0x0d	13
208	0xfa	-6
209	0xed	-19
210	0x1d	29
211	0xf6	-10
212	0x06	6
213	0xea	-22
214	0x0f	15
215	0xff	-1
216	0x12	18
217	0xfb	-5
218	0x10	16
219	0x08	8
220	0xff	-1
221	0xe8	-24
222	0xf2	-14
223	0x07	7
224	0x0a	10
225	0xfb	-5
226	0x09	9
227	0xfd	-3
228	0xf4	-12
229	0xf5	-11
230	0xfb	-5
231	0xf1	-15
232	0xed	-19
233	0x0e	14
234	0x04	4
235	0xf7	-9
236	0xef	-17
237	0x09	9
238	0xf6	-10
239	0x0b	11
240	0xe3	-29
241	0xef	-17
242	0x0e	14
243	0x13	19
244	0xee	-18
245	0x06	6
246	0xff	-1
247	0x03	3
248	0x10	16
249	0x0e	14
250	0x0f	15
251	0xc3	-61
252	0x15	21
253	0x04	4
254	0xed	-19
255	0x19	25
